session5/mnist_model.pth (torch, 41910 bytes, 14 tensors)

conv1.weight f4 [8, 1, 3, 3]
00000000: b653 123e d013 c8bd f138 aabe cbf5 903e
00000010: ba4a d3bc e7c1 7b3d 2ee8 613e c764 3dbd
00000020: ce86 b63d e7a6 643e 8584 173e 3159 823e
00000030: 1207 4b3e 7568 283e 69fc b33d 420f 11bd
00000040: 4c10 4ebe ee68 5e3b d39c 673d e24c d13d
00000050: 04d7 95be 2afe 8a3e f4c0 3abe 0d07 ffbd
00000060: c50a 36be cef5 6cbe 4ffa 8d3d 97fa 5a3e
00000070: cbad c2bd e83d 65be 509d 9a3d 035b 2d3e
00000080: 0fb1 64be 4a8a 13be 380e 243e af7c 363e
00000090: fafc d9bb a30a 393e 6ed3 243e 90a0 66be
000000a0: 964b 51be 0990 7fbe ac93 a8bd 5e2b a83d
000000b0: ab78 13bd 0e4d 4fbe 02b9 67be 5255 8a3e
000000c0: 6711 00be dcdf c8bd 6756 453e 5acf b63d
000000d0: 309a a23d feb6 2d3e 20c1 abbe a26e 04be
000000e0: 6af3 b43e 1848 07bd 5ead 54be 83ce 83bc
000000f0: 3e9c 33be 45ec a7bd 099c 433d 554f c0be
00000100: a125 36be 78d9 adbe ee9b ee3d 21e1 653e
00000110: 54fd 923c 8271 853e f2fb 3fbe 2e92 7f3e
0.14289746 -0.09769404 -0.33246568 0.28312525 -0.025792468 0.061464217 0.22061226 -0.046238687
0.08912431 0.22329293 0.14796646 0.25458673 0.19826916 0.16446097 0.08788378 -0.03541494
-0.20123404 0.0033937055 0.056546044 0.10219742 -0.29265606 0.27147037 -0.18237668 -0.12452517
-0.17777546 -0.23140642 0.06932508 0.21384655 -0.09505805 -0.22386897 0.07549536 0.1692925
-0.22333167 -0.14408222 0.16021049 0.17821 -0.0066524716 0.18070464 0.16096279 -0.22522187
-0.2043899 -0.24957289 -0.08231291 0.08211397 -0.03600375 -0.20244238 -0.22629169 0.2701822
-0.12506638 -0.09808323 0.19271241 0.08926268 0.07939565 0.16964337 -0.3354578 -0.12932828
0.3534196 -0.03302774 -0.2076926 -0.016089683 -0.1754007 -0.08199362 0.04775623 -0.37560526
-0.17787792 -0.33954978 0.11650835 0.22449161 0.017943062 0.26063162 -0.18748453 0.24958107

conv1.bias f4 [8]
00000000: e6cd b33d f811 9c3e 877e 913d 51a7 cc3e
00000010: d961 8c3d db46 69be f56a 8f3e 86db 12be
0.087795064 0.3048246 0.07104211 0.39971402 0.068546005 -0.22780935 0.2801129 -0.14341554

bn1.weight f4 [8]
00000000: d4bb 633f e096 713f 413a 9b3f fd7d 7b3f
00000010: dbce 893f cb0f 733f 46dc 8c3f cfa8 833f
0.8895848 0.9437084 1.2127153 0.9823912 1.0766252 0.94945973 1.1004722 1.0285891

bn1.bias f4 [8]
00000000: d518 c3bd d265 40bd 8d8a b4bd 20e8 3fbe
00000010: 50c2 83bd 40f6 1dbe 12d0 d63c dd8e 1bbe
-0.09526221 -0.046972103 -0.08815489 -0.18740892 -0.064335465 -0.15425968 0.026222263 -0.15191217

bn1.running_mean f4 [8]
00000000: c32a dd3d 2a94 b43e 0147 313d 2fd8 d03e
00000010: 4880 423d 9b21 5cbe 6466 7f3e ff90 21be
0.10799172 0.3526929 0.043280605 0.40789935 0.04748562 -0.21497194 0.24941403 -0.15777968

bn1.running_var f4 [8]
00000000: 01a4 5f3e cd83 193f feb3 973e cd5d c33d
00000010: 1d84 2d3e 0179 783e 51de c73e b318 8a3e
0.21839906 0.5996674 0.2962951 0.095393755 0.16944928 0.2426491 0.390368 0.2697197

conv2.weight f4 [16, 8, 3, 3]
00000000: 00ec 8e3b dd78 b8bd 6d4e c73d bac7 5ebd
00000010: 4422 483d 420a 4abc 45ff cdbd 6ff4 e83c
00000020: 3bc8 863d 3bd0 70bc 04a8 ac3d e24d b8bd
00000030: eae1 a03d 7cf3 d13c 53c1 dfbd 9910 e6bd
00000040: e410 7c3c e899 34bd 67f7 ed3d 78fe af3d
00000050: 301c 17bd 648b bb3d a329 823d 6d6b 7a3a
00000060: 3641 e9bc 4172 2ebc 634b 7cbd 8cfa 90bd
00000070: 6cf7 01be 38c6 8ebd 1b8b eb3d 3b17 aebc
00000080: 9577 423d 8185 37bd 65b1 cabd ce4a 7fbd
00000090: 0ec2 7a3d 9df5 08be 658c b3bd d8a4 2f3d
000000a0: fcea 4e3d 6db6 cfbb 6a15 443d 00d1 683c
000000b0: 12f9 b73d 88ce 393b 917c ef3d 1db6 d73d
000000c0: 960f cb3d 183a 0c3e 588b 823d a195 c13c
000000d0: cce8 f83d 12cd 993b e71c 4cbd dcef e13c
000000e0: 7a47 93bd 9178 d1bd 0cbb a4bd 7504 73bd
000000f0: 32f9 22bd 4a8a 213d 5fc1 4cbd 9e4b f03d
00000100: ddd7 533d d84f 9abd fc49 02bc 4a5d 17be
00000110: 6d7e f4bd f4b3 113d 0297 fdbc 7af9 e4bc
00000120: de11 cbbb 0ada cebd d720 06bc 60bf b73d
00000130: f8d9 a93d 9588 b13d 821a 393d 225c 483d
00000140: e5e8 4ebd 170e 66bc c907 663d f34a 813d
00000150: 3056 8ebc 22fe a13c b84b 54bd 2ddb 8cbc
00000160: 0d1e 09bd 036b 7ebd 74f4 783d ed05 933d
00000170: 023b a03d d904 1d3e 0e9e 1d3d c706 48bd
00000180: 4ac9 f0bd ef0d 69be d809 11be 18e3 6f3d
00000190: 3705 16bb 74bd 4abc eb48 5dbd c1c9 2b3d
000001a0: 8c29 ad3d 74fb b63d 16d4 d53d 4f0b 193d
000001b0: 0468 68bd e149 a2bd d16f 513d 3541 57be
000001c0: f078 14be c0e7 2c3d 2932 35be 2a4c dcbd
000001d0: 9ecb 543d 7ddb b23d 7eb8 b53d c349 8d3d
000001e0: f642 803c bfaa d7bb 4ee7 233d fc37 81bd
000001f0: cf99 84bd 5a44 4fbd 2290 81bd b10b d7bd
00000200: a671 c7bd 1c76 7abd dc3d 3cbd d87a 8abd
00000210: 14f7 ac3d f02a 1a3e 4401 8ebc 7a5d e7bd
00000220: 33a3 8bbd 0fdb a43b 0f4f 13be d976 e2bd
00000230: acef 2bbd 10d9 7fbd 044a 45bd a0bc 003d
00000240: 5b6c b0bd f47b 083e 2a97 85bd 7fec edbb
00000250: 0437 5e3d b3f3 5c3d 3a8e 3cbc 9f96 333b
00000260: ea86 bcbc 841c 073d 4de5 91bd bd9b c6bd
00000270: f1a2 f83c 76f5 0dba c700 26bc c15b 383a
00000280: 5ce4 afbd 0a17 163d 6a12 89bd 4e1f abbc
00000290: b6d2 163d 8bf8 ca3d 5d72 33bc 75cd 1c3e
000002a0: 70b8 c83d 6929 64bd 3da1 253c 7414 c8bc
000002b0: 7c9b 953d 3fba 61bd c66d 823d a85e d3bb
000002c0: 62af 41bd d2e4 a53c b6ad d23b 93a3 463d
000002d0: 9fc7 b3bd 6cea f7bd 36a5 c3bd 2c35 b9bd
000002e0: 4704 9dbd 6137 81bd 694f a4bd 2d8a f73c
000002f0: b383 edbd 0af3 323e ae34 ddbb 533e df3c
00000300: f593 093e 6a3f b2bb e1f4 143e f5e3 d8bc
00000310: 9312 c7bd 5594 153d efaf f03d 81b9 1a3e
00000320: f401 7f3d cc4b 6fbd 4943 d33d 9c3c 563c
00000330: 2946 ccbb aa4f 59bd cf90 403d 8faa 12be
00000340: ccdf 40bd c5f3 ffbc 5fb2 88bd a1a6 a9bd
00000350: 0476 1fbd 5149 f2bc f849 4cbd 1c84 653d
00000360: ede6 9b3d 37eb 8e3d 0eb5 c03d 5aa9 98bc
00000370: 46d5 923c a1ef 703d 3a1d bb3c 1b31 57bd
00000380: 4559 b93d 313f 0ebe f1d7 0c3d a2ff 803d
00000390: 80bb 60bd 166d 6abc c7a9 a6bd c88f 84bd
000003a0: 5bad 9abd ed15 85bc 2229 bd3c 1214 3f3c
000003b0: aeda 47bd 4d2c 1cbd bbf4 e5bc 08cc dd3d
000003c0: 4006 ef3c 8247 58bd cc73 d63c 524b 933c
000003d0: cd44 8e3d 89f5 693d 3661 c9bc 100a 3bbd
000003e0: fa62 9c3d dd4c 4e3c c392 f73d 94e3 8a3d
000003f0: 031c df3d 80c8 32be 0748 22be f226 e23b
0.0043616295 -0.09007428 0.097317554 -0.054389693 0.048860803 -0.012331547 -0.100584544 0.028436868
0.0658116 -0.0146980835 0.08430484 -0.0899923 0.0785559 0.025628798 -0.109255455 -0.112336345
0.015384886 -0.04409209 0.11619454 0.08593458 -0.036892116 0.09157446 0.06355598 0.0009552751
-0.028473478 -0.010647357 -0.061595332 -0.07079038 -0.1269204 -0.06971401 0.11501142 -0.021251312
0.047477324 -0.044805054 -0.098971166 -0.0623272 0.06122022 -0.13374944 -0.087670125 0.042881817
0.050517067 -0.0063388855 0.047871985 0.014209986 0.08983053 0.0028351862 0.11693681 0.10532782
0.09915082 0.13694036 0.06374234 0.023630919 0.121537775 0.0046936357 -0.04983225 0.027580194
-0.071913674 -0.10228074 -0.08043489 -0.059330422 -0.039788432 0.039438523 -0.0499891 0.11733173
0.051719535 -0.0753476 -0.00795221 -0.1478168 -0.11938176 0.035572007 -0.030955795 -0.027950991
-0.0061971983 -0.101001814 -0.008186541 0.08972049 0.08293527 0.08668629 0.045191295 0.04891599
-0.050515074 -0.014041445 0.05615977 0.063131236 -0.017375082 0.0197745 -0.051830024 -0.017194355
-0.033475924 -0.062113773 0.060780004 0.07178865 0.07823755 0.1533388 0.03848081 -0.04883459
-0.11757143 -0.22759221 -0.14163911 0.058566183 -0.0022891292 -0.012374271 -0.054024618 0.041940454
0.0845519 0.089346796 0.10440843 0.0373643 -0.056739822 -0.079242475 0.051132027 -0.21020968
-0.14499259 0.0422132 -0.17694916 -0.10756715 0.051951997 0.0873327 0.0887308 0.068988346
0.01565693 -0.006581634 0.04001551 -0.06309506 -0.06474649 -0.050602295 -0.06326319 -0.10500277
-0.097384736 -0.061147794 -0.04595743 -0.06761712 0.08445564 0.15055442 -0.017334588 -0.11297126
-0.06818237 0.0050309966 -0.14385627 -0.11057825 -0.041976616 -0.062462866 -0.04816629 0.031429887
-0.08614417 0.13328534 -0.06522973 -0.0072608585 0.054251686 0.053943347 -0.011508519 0.002740301
-0.02301355 0.03298618 -0.07123814 -0.096976735 0.030351134 -0.00054152997 -0.010132021 0.00070327154
-0.08588478 0.036643066 -0.06692965 -0.02088895 0.036822043 0.09910687 -0.010952559 0.1531275
0.09800804 -0.055703554 0.010109243 -0.024423815 0.07305047 -0.05510926 0.06368594 -0.006450493
-0.0472864 0.020250712 0.0064293994 0.04849584 -0.08778309 -0.12105259 -0.09552996 -0.09043345
-0.076668315 -0.06309391 -0.08022959 0.030217255 -0.11597385 0.17475525 -0.0067506647 0.027251398
0.13435347 -0.0054396885 0.14546539 -0.026475886 -0.097203396 0.036518414 0.11752307 0.15109827
0.062257722 -0.058421895 0.10315568 0.013075974 -0.0062339497 -0.05305449 0.0470131 -0.14322875
-0.04708843 -0.031244168 -0.066746466 -0.08283735 -0.038930908 -0.029575976 -0.04987523 0.056034192
0.07612405 0.069784574 0.094095334 -0.01863544 0.017923962 0.058822278 0.022841085 -0.052537065
0.0905023 -0.13891293 0.034385625 0.06298758 -0.054866314 -0.014308235 -0.08137851 -0.064727366
-0.07552596 -0.016245807 0.023090903 0.0116625 -0.048792534 -0.038128186 -0.028070798 0.108299315
0.029177785 -0.05280257 0.026178263 0.017980251 0.069467165 0.057118926 -0.024582487 -0.045663893
0.07636066 0.012591568 0.120885395 0.06781688 0.10894015 -0.17459297 -0.15847789 0.0069016153

conv2.bias f4 [16]
00000000: 7fe7 6c3d 2b1e 0b3c 6e54 b8bd 4ee6 ce3d
00000010: 6ba2 85bd 6c13 143e a044 b43b 3d6b 2f3e
00000020: 808b c0bc fe39 d6bd a58e aabd 259e aebd
00000030: a5ed 1a3e edc2 15be ca35 b3bd 9c96 d9bc
0.05783796 0.008491079 -0.09000479 0.10102521 -0.065251194 0.14460534 0.005501345 0.17130752
-0.023504019 -0.1046028 -0.083279885 -0.085262574 0.15129717 -0.1462514 -0.08750494 -0.026561074

bn2.weight f4 [16]
00000000: 0055 8d3f 73a1 9d3f 2b73 923f f688 a03f
00000010: 1873 9d3f fd92 913f 8dd7 923f dced 9a3f
00000020: b279 8e3f 0ab7 a13f bd47 943f e6b9 9a3f
00000030: 6481 9b3f 8717 963f 6f85 9d3f d92c 983f
1.1041565 1.2314895 1.1441396 1.2541797 1.2300749 1.1372982 1.1472031 1.2103839
1.1130888 1.2633984 1.1584393 1.2087982 1.2148862 1.172593 1.2306346 1.1888686

bn2.bias f4 [16]
00000000: e059 f1bd 3d8a fbbd 4463 a5bc 845e 0ebd
00000010: 240f a73c a73e 85bd dec4 13bd 9b7b e33d
00000020: 6886 10bc 0027 fcbb c193 cebc 458c a13c
00000030: d9d4 403d a3d5 27bd cee1 80bc 6286 b33b
-0.117847204 -0.12282226 -0.020188935 -0.034758106 0.020392962 -0.065060906 -0.03607642 0.1110756
-0.008821107 -0.007695079 -0.025216939 0.019720206 0.047077987 -0.040975224 -0.015732672 0.005478666

bn2.running_mean f4 [16]
00000000: 07f6 cebc ac42 acbe 55f3 afbd 83ea 1bbc
00000010: e9d1 4d3e 8abe 013e 4b95 12bd c2ea e73e
00000020: 70c5 583e 3ec3 aa3e 9cf1 1dbd 896a a4be
00000030: c8e2 d13e c750 a1be 7dcb d13e c0f9 f63d
-0.0252638 -0.33644617 -0.08591334 -0.009516361 0.20099606 0.12670341 -0.035786908 0.45296293
0.21169066 0.33352083 -0.038560495 -0.3211253 0.40993333 -0.3150694 0.40975562 0.12059355

bn2.running_var f4 [16]
00000000: b713 0c3e 06c8 193e 7f14 203e c8c3 af3e
00000010: 8523 e23e 8dc2 ca3d 529c 7b3e 1a12 0e3f
00000020: 2927 953e ac14 803e 98ad 223e 6703 a53e
00000030: e9fa 593e 7a07 ac3e 9f73 2f3e 2d2f a63e
0.13679396 0.15017709 0.15632819 0.34329057 0.44167724 0.09900389 0.2457135 0.5549637
0.2913144 0.2501577 0.15886533 0.32229158 0.21287121 0.33599454 0.1713395 0.32457867

fc.weight f4 [10, 784]
00000000: b10a 69bc e43f 9b3c f8b0 a2ba e281 553c
00000010: fe92 bfbc 59cf 39bd c53a 7abd 9c98 c7bb
00000020: ecc9 74bc 5b77 32bc ec4b 3bbd 19c4 42bd
00000030: ad8b 12bd 4b0c 01bd ef74 773d af33 093c
00000040: abc2 8bbc 4353 0bbd 967b 65bc 414c 0d3d
00000050: 669e 3ebd 1804 863d b8b1 8f3d 0fc8 353c
00000060: 2069 b5bc 4eff e73c a956 9d3d 585c 833c
00000070: 45ce 9a3d f2d8 2d3d 9f48 e63c 439a 3dbd
00000080: c58e 473d 2596 4c3d 9402 0bbc 375c 973d
00000090: 8b06 873c b37b cbbc cec0 0fbd 2689 45bc
000000a0: b9ef 273c 9c86 873c 5ef5 0b3d babf 813c
000000b0: 4325 4fbd 354a 00bd cf9c 51bc 52e0 08bd
000000c0: a0f6 c2bc 4705 56bd 3af2 f5bc e4d0 e0bc
000000d0: 7815 f73c f00d 4a3d f6aa 943d cc35 30bc
000000e0: 1f75 8bbd 539c 233b 2ab2 fabb a07c 31bb
000000f0: 68e4 183d c9d2 323d b7e6 a33d 7e73 b6bc
00000100: 51c6 b33c 6b9d 093d 9555 5f3d b07a 4fbc
00000110: cc7d a4bc bd82 aa3d fbc0 033c 1dbb e13d
00000120: 03d5 a23d f839 3e3d 8ef3 cdbc b7a8 103d
00000130: 3f72 853d 5525 8e3d 2fd0 c83d 57f3 8e3d
00000140: c7fe b4bb f030 0fbd c5e6 cc3c 6405 a53d
00000150: 1be2 053d 067f 713d c3df d53c 4f25 78bd
00000160: 7e91 e6bc e7da 2d3a 0bb1 283c 9449 8dbc
00000170: ea81 193c 4e7b 1abc 98b0 eebc 28f3 0bbc
00000180: b549 25bd aa4b 46bd 63eb 123c 189c b3ba
00000190: 7c1c adbc 7b56 2fbd e111 c63b 6331 5fbd
000001a0: b110 5dbc a656 f2bb 0279 80bb 79fb fdbc
000001b0: 70cc c2bc 994b 79bc 59a5 b6bc 409b 54bd
000001c0: 4a22 e83c 02f1 ef3c dbda 54bd de7e b13c
000001d0: 1b02 6f3b b239 da3c d7f2 143d f597 033d
000001e0: 17e3 923c 6880 233d 011d 433d a9fd 4a3d
000001f0: 0e79 683d 29b0 b83d c721 dfbb 2067 493d
00000200: 3959 8f3d 8a97 383d 2a26 e33c f60e 3e3b
00000210: cade 953d 1675 bd3c 9cc0 513c dec2 443d
00000220: cb2e 26bd c103 7fbd 96ac ba3c a452 5e3d
00000230: 9431 493b 3af3 b6bb cc67 013c 1f31 bdbd
00000240: cad3 b3bd a5ab 32bd 4c3f 80bd 5489 3fbd
00000250: 4dc6 04bd 7fb8 9a3c 9609 723c 98aa 0a3d
00000260: 9488 573c 4834 133c 6701 9abc b585 523c
00000270: 1777 c0bb eaa2 0fbb 9fb6 7d3b 1158 1d3d
00000280: a521 a33c bfd2 b03d 8f8d 6b3d 2dba e73c
00000290: 2fb9 00bd 03a9 cc3c 7ffc 973d 52c0 0c3e
000002a0: 3cd6 8b3d ef42 9e3d 0ec4 b93c 36bd b73b
000002b0: 59c5 cf3d f8f0 733d 8b65 113e e7cd d23d
000002c0: 963b 083d 370f 373d dee3 aa3b 5bdd 9d3d
000002d0: 957d d13c 319e 2b3d f1f1 993d fbdf 123d
000002e0: cd53 dd3c 2bda 63bd ed83 19bd 577d 81bb
000002f0: 430b e43b 9be2 e83b 032c 6d3d eede 0c3b
00000300: 5318 1ebe 009a 24be d1ce 37be 732d 1cb9
00000310: c6ce ab3c a330 c13b ea76 923c c7c2 923c
00000320: 500b a13c 8440 19bd 7c12 1cbd f57d bf3c
00000330: 20b3 95bd c999 90bd dc61 3abb ecd4 813d
00000340: 83b2 8eba 05f1 0fbc 8b35 55bd e003 dbbd
00000350: d40f a7bd ba77 3b3d 8adb 923d eb55 e03c
00000360: 898d 63bd 63dc 89bd 8692 c8bd 2612 bbbd
00000370: b37f 203b 5948 523c 19b8 c53c 6833 17bc
00000380: 487d 2c3d ce5d 763c b66c 973c d18a 43bd
00000390: 36f1 533c 3af5 ecbb 0010 fe3c 6a1b 813c
000003a0: 4057 a93b c9a4 a83c aa48 4abc bcb1 cbbb
000003b0: f96b acbc 310d 563c 3c2d b13c 794a 203c
000003c0: 5c0d d9bc 77e3 863c 5fff 89bc 38d3 8fbd
000003d0: a9d4 adba fd50 27bd 08cc c2bc 15e9 b3ba
000003e0: 3e5e aabc f804 1e3c ae3a c939 ed15 9a3c
000003f0: 8df6 913d ae74 ce39 11c3 513b 574f 2cbc
-0.01422374 0.018951364 -0.001241236 0.013031455 -0.023385521 -0.045363758 -0.061091203 -0.0060911905
-0.01494072 -0.010892714 -0.0457267 -0.047550295 -0.035777736 -0.031505864 0.06041425 0.008374139
-0.017060598 -0.03401495 -0.014006516 0.03449655 -0.04653778 0.065437496 0.07016319 0.011095061
-0.022144854 0.028319981 0.07682545 0.016035244 0.07558874 0.042443223 0.0281108 -0.046289694
0.04872014 0.049947876 -0.008484501 0.073906355 0.016482612 -0.024839258 -0.035095982 -0.0120566245
0.010250025 0.016543679 0.034169547 0.015838493 -0.050572645 -0.03132077 -0.012793734 -0.033417054
-0.02379924 -0.052251127 -0.03002273 -0.027443357 0.030161604 0.049329698 0.07259171 -0.010755014
-0.068094485 0.0024965003 -0.0076506333 -0.002708234 0.0373272 0.04365805 0.0800299 -0.022271868
0.02194515 0.03359739 0.054524977 -0.012663528 -0.020079516 0.083257176 0.008041616 0.11022017
0.07950785 0.046442002 -0.02514055 0.03531715 0.06515931 0.06940714 0.09805333 0.06980007
-0.005523536 -0.03495878 0.025012383 0.08057669 0.032686334 0.05895903 0.026107674 -0.060582455
-0.028145548 0.0006632045 0.010296117 -0.017246999 0.009369353 -0.009428812 -0.02913694 -0.00854186
-0.040353496 -0.048412003 0.008967253 -0.0013703136 -0.021131746 -0.042807084 0.006044612 -0.05449046
-0.013492749 -0.007395583 -0.0039206753 -0.0310037 -0.023779124 -0.015215778 -0.02229564 -0.05190587
0.028336663 0.029289726 -0.05196653 0.02166694 0.003646976 0.02663884 0.036364403 0.03212734
0.01793055 0.03991738 0.047635082 0.049558315 0.05675607 0.09017975 -0.0068094465 0.049170613
0.0699944 0.045066394 0.027728159 0.0029000617 0.07317884 0.02312712 0.012802269 0.048037402
-0.04057197 -0.06225944 0.022787374 0.05427803 0.0030699717 -0.005583194 0.007898282 -0.09237885
-0.0878063 -0.043620724 -0.06262073 -0.046761826 -0.032415677 0.018886803 0.014772793 0.033854097
0.013155121 0.008984633 -0.018799497 0.012849261 -0.0058735716 -0.0021917173 0.0038713587 0.038414065
0.019913504 0.086339466 0.057508048 0.028287018 -0.031426605 0.024982935 0.07421207 0.1374524
0.06827971 0.0772761 0.022676494 0.0056072725 0.10145063 0.059555978 0.14198892 0.10293179
0.03325995 0.044692244 0.005215152 0.07708236 0.025572577 0.04189891 0.0751685 0.035858136
0.027017498 -0.055627983 -0.03747933 -0.0039517093 0.0069593503 0.0071070916 0.0579033 0.002149518
-0.15438966 -0.16074371 -0.17949988 -0.0001489425 0.02097262 0.0058956905 0.017878968 0.017915143
0.019658715 -0.037415043 -0.038103566 0.02337549 -0.07309556 -0.07060582 -0.0028439676 0.0633944
-0.0010886941 -0.008785491 -0.052053016 -0.106940985 -0.08157316 0.045768477 0.0717078 0.027384719
-0.0555549 -0.067314886 -0.09793572 -0.09134321 0.0024490177 0.012834632 0.024135636 -0.009228565
0.042111665 0.015037013 0.018484455 -0.047739808 0.012935927 -0.0072313817 0.031013489 0.015760142
0.0051678717 0.020586388 -0.012346426 -0.006216256 -0.02104758 0.0130646685 0.021628015 0.009783381
-0.026495628 0.016465886 -0.016845403 -0.07022709 -0.001326223 -0.04084872 -0.02377893 -0.001372608
-0.020796891 0.009644739 0.00038381427 0.018809283 0.07127104 0.00039378315 0.0032007138 -0.010516963

fc.bias f4 [10]
00000000: c796 afbc f06b d43d e2a5 0fbc 66e0 52bc
00000010: 4715 be3b 651e c93c e2f7 5cbb 224e 99bc
00000020: 6b2f 07bc 02e7 4abc
-0.0214342 0.1037215 -0.008767577 -0.012870884 0.0058008763 0.024550626 -0.0033717086 -0.018714014
-0.008251051 -0.012384178
